cddqn_model.pt (torch, 104215 bytes, 6 tensors)

fc1.weight f4 [128, 66]
0	0x3cc1c380	0.023652792
1	0x3dc460c2	0.095887676
2	0x3db18ed8	0.086698234
3	0x3c5ba340	0.013405621
4	0xbbeafdc0	-0.0071713626
5	0x3d50f41c	0.05101405
6	0xbd21191c	-0.039330587
7	0xbd90e517	-0.070749454
8	0xbdbb9680	-0.09159565
9	0x3d55dd50	0.052213013
10	0x3ddd22aa	0.10797627
11	0xbd86b816	-0.0657808
12	0xbd82cedd	-0.06387112
13	0x3d541784	0.05178024
14	0x3df2a51c	0.11847898
15	0xbdc196ed	-0.09452615
16	0xbd17c1cc	-0.037050053
17	0xbd257b1a	-0.040400602
18	0xbd2bb092	-0.041916437
19	0xbc776320	-0.015099317
20	0xbdd534e0	-0.10410476
21	0x3d4049b4	0.04694529
22	0xbceaea88	-0.028676286
23	0xbd9cc1fb	-0.07654186
24	0xbd7919ea	-0.06081573
25	0x3dcc45f4	0.0997428
26	0x3c43acd0	0.011943057
27	0xbdb5e116	-0.08880822
28	0xbc555df8	-0.013022892
29	0x3dafc7e4	0.08583048
30	0x3da53b9c	0.0806801
31	0xbcd6f04c	-0.02623763
32	0xbdc2b109	-0.09506423
33	0xbdee4234	-0.11633721
34	0x3de55576	0.11197941
35	0xbd3046e8	-0.04303637
36	0x3df0fc98	0.117669284
37	0xbdaaa3d6	-0.083320305
38	0xbd2a47aa	-0.04157225
39	0x3d925860	0.071457624
40	0x3d098534	0.033574298
41	0x3dd391cc	0.10330543
42	0x3d157000	0.036483765
43	0x3d95e548	0.073191226
44	0x3df0f4a8	0.117654145
45	0xbd846bd2	-0.064658776
46	0xbd3d4bd8	-0.04621491
47	0xbde58c9e	-0.11208461
48	0xbdbbd999	-0.09172363
49	0x3c4f21d0	0.012642339
50	0xbdbe78db	-0.09300395
51	0x3ca3cfc8	0.019996539
52	0x3dc2b38a	0.095069006
53	0x3d768594	0.060185984
54	0x3db51796	0.08842389
55	0xbde816af	-0.113324516
56	0x3d98ff44	0.07470563
57	0x3dee30a4	0.11630371
58	0x3db8b600	0.09019089
59	0x3c8861e8	0.016648248
60	0xbdba1cf4	-0.090875536
61	0xbd6bec70	-0.05759853
62	0x3d1aa5e8	0.037755877
63	0xbd98bfd2	-0.07458462
64	0x3d760a20	0.06006825
65	0xbcb365f4	-0.021899201
66	0x3aa04bc0	0.0012229607
67	0x3d89160a	0.06693657
68	0x3df7350e	0.12070666
69	0xbde2d45b	-0.1107566
70	0xbda5e5d0	-0.08100474
71	0x3d5ae5c8	0.053441793
72	0xbdd36c5a	-0.10323401
73	0x3dbf8eb0	0.09353387
74	0x3cc011e8	0.023446038
75	0xbd9c926c	-0.07645115
76	0x3d5192dc	0.051165447
77	0x3d545b18	0.051844686
78	0x3de814e8	0.113321126
79	0xbcdcdcc0	-0.02696073
80	0xbdef8f46	-0.11697249
81	0xbdf50d1a	-0.119653895
82	0xbdd8af12	-0.10580267
83	0xbd826466	-0.06366806
84	0xbdf77a97	-0.12083929
85	0xbc428320	-0.011872083
86	0xbc8b53b4	-0.017007686
87	0xbcdc5dd0	-0.026900202
88	0x3dc1d04c	0.094635576
89	0xbd83368f	-0.064068906
90	0x3defa230	0.11700857
91	0xbd2e17c4	-0.042503133
92	0x3d505a8c	0.050867602
93	0x3d948726	0.0725234
94	0x3c411460	0.011784643
95	0x3dbe1e8a	0.092831686
96	0x3d6e5cf4	0.058194116
97	0xbd922e72	-0.07137765
98	0x3d534a54	0.051584557
99	0xbdacac6c	-0.08431324
100	0x3d985678	0.074383676
101	0xbd5124d4	-0.051060513
102	0xbdd84cca	-0.10561521
103	0x3df0c520	0.117563486
104	0x3de7fd90	0.1132766
105	0xbd6318f0	-0.055443704
106	0xbdbc1391	-0.091834195
107	0xbdb1808e	-0.08667098
108	0xbd5729e4	-0.052530184
109	0x3db5a4bc	0.08869311
110	0xbaac0c80	-0.0013126284
111	0xbdc8f1ce	-0.098117456
112	0xbd1b3c1e	-0.03789913
113	0x3cc371b0	0.023857921
114	0xbdbe4004	-0.09289554
115	0x3cd46018	0.025924727
116	0x3d28db94	0.04122503
117	0x3b86ca40	0.0041134655
118	0xbcc5ecb4	-0.02416072
119	0xbda69714	-0.081342846
120	0x3dd4c15c	0.10388443
121	0xbd6a80fc	-0.057251915
122	0xbddab4db	-0.10679027
123	0xbd9c9dd4	-0.07647291
124	0x3dea3e5c	0.11437675
125	0x3d50473c	0.050849184
126	0x3b524940	0.0032087117
127	0x3d3324c0	0.04373622
128	0xbd01c080	-0.031677723
129	0x3db20d14	0.08693901
130	0x3db3ec64	0.08785322
131	0xbdbdd1f7	-0.09268563
132	0x3c0def90	0.008663073
133	0x3dae7c84	0.08519843
134	0x3c33f180	0.010982871
135	0x3d10b274	0.035326436
136	0xbce1a068	-0.027542308
137	0xbdd3082a	-0.103042915
138	0x3d559164	0.05214061
139	0x3d85a606	0.06525807
140	0xbd5f0e8a	-0.054457225
141	0xbdf7cc7a	-0.12099548
142	0xbd26a50c	-0.040684745
143	0x3bd3b120	0.006460324
144	0xbd5f85aa	-0.05457083
145	0x3db52cdc	0.08846447
146	0xbc84b188	-0.016197935
147	0x3ceef3c0	0.029168963
148	0x3d70fb1c	0.058833227
149	0x3d97c9d4	0.074115425
150	0x3d86d338	0.065832555
151	0xbd5cc616	-0.053899847
152	0x3d487930	0.0489437
153	0x3dc57f30	0.096434
154	0x3db4065c	0.087902755
155	0x3c05ad70	0.0081590265
156	0x3d8978ce	0.06712495
157	0x3cdd5ae0	0.027020872
158	0xbd9efff6	-0.077636644
159	0x3dede6e0	0.116163015
160	0x3d32fcb8	0.043698043
161	0xbc818be4	-0.015813775
162	0xbda6999a	-0.08134766
163	0xbd77bee4	-0.06048478
164	0xbdb6a548	-0.08918244
165	0xbdf1f2b5	-0.11813871
166	0xbd16fc6c	-0.036861822
167	0xbdce2021	-0.10064722
168	0x3d4787a4	0.04871334
169	0x3c849098	0.016182229
170	0x3d820808	0.06349188
171	0xbc759450	-0.014988974
172	0x3dbcc252	0.09216751
173	0x3b7fde00	0.0039042234
174	0xbb748c20	-0.0037314966
175	0x3cf0a8c8	0.029377356
176	0x3dbaa3f0	0.091133
177	0x3d075430	0.03303927
178	0xbcdbfe9c	-0.026854806
179	0x3d913eb4	0.07092038
180	0xbd796af1	-0.060893003
181	0x3c25a490	0.010110036
182	0x3d37ca4c	0.04487066
183	0x3df89a14	0.12138763
184	0xbc3fce00	-0.011706829
185	0x3d827d38	0.0637154
186	0x3dd13e92	0.102170125
187	0xbd635bfa	-0.055507638
188	0x3d85fac4	0.0654197
189	0x3d7fe3cc	0.062473103
190	0xbd4c351c	-0.049855337
191	0x3c855ec0	0.016280532
192	0xbd9c6d51	-0.07638038
193	0xbd8f9b48	-0.070120394
194	0x3dc14646	0.09437232
195	0x3d8b6138	0.068056524
196	0x3cf7ea88	0.0302632
197	0xbbc3f160	-0.005979702
198	0x3db3c20a	0.087772444
199	0xbdb3c85c	-0.0877845
200	0x3b9f5080	0.0048618913
201	0x3c1ea590	0.009683028
202	0x3dd54a9c	0.10414621
203	0x3ded0bcc	0.11574516
204	0xbdd7b216	-0.10532014
205	0x3dc646ea	0.096814945
206	0x3d295884	0.04134418
207	0x3d921598	0.07133025
208	0x3cfbd810	0.030742675
209	0xbd1a221e	-0.037630193
210	0xbdc7ce8c	-0.097561926
211	0xbda9571a	-0.082685664
212	0x3d9d37ce	0.076766595
213	0xbdf4bc9b	-0.11950036
214	0x3d101e6c	0.035185263
215	0xbcc7ce34	-0.024390317
216	0xbd4d651e	-0.05014526
217	0x3dde9c86	0.10869698
218	0x3bb5c280	0.005546868
219	0x3daacf00	0.08340263
220	0xbdb84c74	-0.08998957
221	0xbd29e316	-0.04147633
222	0xbdbbe102	-0.09173776
223	0x3c4cbe00	0.012496471
224	0xbca864d4	-0.020555891
225	0xbd8fa5fa	-0.070140794
226	0xbdbac220	-0.09119058
227	0xbde87477	-0.11350339
228	0xbc96ce34	-0.018408872
229	0xbdb576f4	-0.08860579
230	0x3c2cfd80	0.010558486
231	0xbdb0727c	-0.08615586
232	0xbd7e6d43	-0.06211592
233	0xbd02c4fa	-0.031926133
234	0xbdaf89d2	-0.08571209
235	0xbdccc4f7	-0.099985056
236	0xbd5ae68a	-0.053442515
237	0x3d9098a4	0.07060364
238	0x3b055f80	0.0020351112
239	0xbce4c1f8	-0.027924523
240	0x3d298494	0.041386202
241	0xbd5c878a	-0.053840198
242	0x3d4a3a94	0.04937227
243	0xbdf08159	-0.11743421
244	0x3da446f8	0.08021349
245	0x3da8dd5c	0.08245346
246	0xbbe57df0	-0.0070035383
247	0x3d1f13c4	0.03883721
248	0x3ddcee6a	0.107876614
249	0xbc8925c0	-0.016741633
250	0xbddf2c1f	-0.10897087
251	0x3cddad80	0.02706027
252	0xbca8bacc	-0.020596884
253	0x3d614284	0.054995075
254	0x3d48b5b0	0.049001396
255	0xbde65b0a	-0.11247833

fc1.bias f4 [128]
0	0xbdf98ae0	-0.121846914
1	0xbd1821b0	-0.037141502
2	0x3de81ec8	0.11333996
3	0xbde3bdcb	-0.111201845
4	0x3d51a0c8	0.051178724
5	0xbdd30b32	-0.1030487
6	0x3df60488	0.12012583
7	0x3cdf3218	0.027245566
8	0x3d249464	0.04018058
9	0x3da63750	0.08116019
10	0x3d231210	0.039812148
11	0xbc524b78	-0.012835376
12	0xbd3af566	-0.045644186
13	0x3df5b34e	0.1199709
14	0x3dd6236c	0.10455975
15	0x3ddb7474	0.10715571
16	0xbde63517	-0.11240595
17	0xbc046f98	-0.008083247
18	0x3d0e3c74	0.03472562
19	0x3df29e22	0.11846568
20	0xbd9ea790	-0.07746804
21	0x3d39c6f8	0.045355767
22	0xbdc429d4	-0.095782906
23	0x3dbbcf5e	0.091704115
24	0x3dbe4038	0.092895925
25	0xbdede0b1	-0.11615122
26	0xbcd99f3c	-0.026565187
27	0x3dd3de76	0.103451654
28	0x3dc9e378	0.09857839
29	0x3d888b88	0.066672385
30	0xbde77250	-0.113011
31	0xbc6589b8	-0.0140098855
32	0xbda046c2	-0.07825996
33	0x3db1c704	0.08680537
34	0xbde83abe	-0.11339329
35	0xbb8aebd0	-0.004239537
36	0x3d6eef6c	0.0583338
37	0x3d9be982	0.076128975
38	0x3c87e860	0.016590297
39	0x3d375058	0.044754356
40	0xbd1972fc	-0.037463173
41	0x3d886ab0	0.06660974
42	0xbdf43627	-0.11924391
43	0x3dd85d4a	0.105646685
44	0x3b287f40	0.0025710613
45	0x3c495ae0	0.012289733
46	0xbdccc0db	-0.09997722
47	0xbd8c99d2	-0.068652764
48	0x3dc747b0	0.0973047
49	0x3cc9c3a0	0.024629414
50	0xbd53f78c	-0.05174975
51	0x3d191774	0.037375882
52	0x3dc9351c	0.09824583
53	0x3dab00da	0.08349772
54	0x3d1db418	0.03850183
55	0x3d8533ca	0.065040186
56	0xbd8186e8	-0.063245595
57	0xbdae9a24	-0.08525494
58	0x3de869e4	0.11348322
59	0xbc845698	-0.016154572
60	0xbda86043	-0.082214855
61	0xbcdaaaa0	-0.026692688
62	0x3d00fdb0	0.031491935
63	0xbcf202a8	-0.029542282
64	0x3cb29888	0.021801248
65	0xbd20972c	-0.03920667
66	0x3cb6d940	0.02232039
67	0x3c322490	0.010872975
68	0xbd76a2ea	-0.06021396
69	0x3c93ece8	0.018057302
70	0xbda55e8c	-0.08074674
71	0x3d57c7f8	0.05268094
72	0x3dc58ff8	0.096466005
73	0xbdb99b06	-0.090627715
74	0xbd467a86	-0.04845669
75	0xbdfa3f77	-0.12219136
76	0xbd9bce58	-0.07607716
77	0xbd936c87	-0.07198434
78	0x3c5135f0	0.012769207
79	0x3dd68b18	0.10475749
80	0x3dca2bce	0.09871636
81	0x3cabbc70	0.020963877
82	0x3d0ccae4	0.03437318
83	0x3d0ed0a0	0.03486693
84	0xbd7dc8e3	-0.06195916
85	0x3c8d6b80	0.017263174
86	0xbc904888	-0.01761271
87	0xbd87ec46	-0.066368625
88	0xbde3176f	-0.11088454
89	0x3d854d70	0.06508911
90	0x3d896354	0.067083985
91	0xbdf69661	-0.12040401
92	0x3d916246	0.07098822
93	0x3dddc8ec	0.108293384
94	0xbd31d70c	-0.043417975
95	0x3db6166e	0.08890997
96	0xbdd5b093	-0.104340695
97	0xbde9e9ae	-0.11421524
98	0xbdd526ef	-0.104078166
99	0xbd35efd6	-0.04441818
100	0xbde4d602	-0.11173631
101	0x3dc9208a	0.098206595
102	0x3cccdcd8	0.02500765
103	0x3df7087a	0.12062164
104	0xbd0eeb2a	-0.03489224
105	0x3de4ac6a	0.11165698
106	0x3d5cea90	0.053934634
107	0xbdd264c4	-0.10273126
108	0xbdd7a10a	-0.10528763
109	0xbce5c5b4	-0.028048374
110	0x3cb6a9b8	0.022297725
111	0xbdf3467c	-0.11878678
112	0xbdda8a11	-0.10670865
113	0xbc6e0a48	-0.014528818
114	0xbcf3d9a8	-0.029766873
115	0xbdeb8473	-0.11499872
116	0x3da276e6	0.07932834
117	0xbdaf966c	-0.085736126
118	0x3dc62abc	0.0967612
119	0x3cab7eb0	0.020934433
120	0x3d3c6520	0.045994878
121	0xbcdca324	-0.02693326
122	0x3dd37806	0.10325627
123	0x3da3aa24	0.07991436
124	0xbd6bcfaa	-0.05757109
125	0xbcf66044	-0.0300752
126	0x3daea2de	0.08527158
127	0x3de60c58	0.11232823

fc2.weight f4 [128, 128]
0	0x3d388c9a	0.045055963
1	0xbcf01b2e	-0.029309835
2	0x3c89aa94	0.01680497
3	0xbda6db8c	-0.08147344
4	0xbc214778	-0.0098437
5	0x3cdf9e28	0.027297094
6	0xbd78eb56	-0.06077131
7	0x3db3d703	0.087812446
8	0x3da1fc01	0.07909394
9	0x3d8dd5bb	0.069255315
10	0x3d6e9646	0.05824878
11	0x3da0def9	0.07855029
12	0x3d9833ff	0.074317925
13	0x3db172f7	0.08664506
14	0xbcb28424	-0.021791525
15	0xbd658e8d	-0.05604415
16	0x39ba1700	0.0003549382
17	0xbd96cc08	-0.073631346
18	0x3d9815a7	0.07426005
19	0x3d29c4ea	0.041447558
20	0x3b92f830	0.0044851527
21	0x3ce3f158	0.027825043
22	0xbdad9bad	-0.084769584
23	0xbc96d6d4	-0.018412985
24	0xbc6531b0	-0.013988897
25	0xbd98dec8	-0.07464367
26	0xbc2e2b28	-0.010630406
27	0xbb4a1d40	-0.0030840188
28	0x3d1c9912	0.038231917
29	0x3d9b140b	0.07572182
30	0xbcc0ace0	-0.023519933
31	0xbd2d0ba4	-0.04224743
32	0xbda5db0b	-0.0809842
33	0xbc221ff0	-0.00989531
34	0xbd904591	-0.07044519
35	0x3d555976	0.05208727
36	0x3cde06ec	0.02710291
37	0xbc3a5be0	-0.011374444
38	0x3d846117	0.06463831
39	0x3d34dc12	0.044155188
40	0xbce486da	-0.027896333
41	0x3cf4a490	0.029863626
42	0x3da897fb	0.08232113
43	0xbd1a3cc4	-0.037655607
44	0x3c7718f0	0.015081629
45	0x3d6bc75e	0.05756318
46	0x3d9c80b9	0.076417394
47	0xbd9b58fc	-0.07585332
48	0x3bd7b730	0.006583117
49	0xbd75075a	-0.059821464
50	0x3d6e3402	0.058155067
51	0xbd74142c	-0.05958955
52	0xbcb3f628	-0.021967962
53	0x3d4088d6	0.047005497
54	0xbd850742	-0.06495525
55	0x3d8922f9	0.06696124
56	0x3d90991b	0.070604526
57	0x3d687d1a	0.05675993
58	0x3cda7ab4	0.026669838
59	0x3d79758e	0.060903125
60	0xbdad85d0	-0.08472788
61	0xbd8631ce	-0.06552468
62	0x3d8ee53d	0.069773175
63	0x3d87856d	0.06617246
64	0xbd5e71fe	-0.05430793
65	0xbcef0752	-0.029178295
66	0x3d102130	0.0351879
67	0xbd917dd1	-0.07104076
68	0xbce3d12c	-0.027809702
69	0xbd417406	-0.04722979
70	0xbd23b43e	-0.039966814
71	0xbd938b62	-0.072043195
72	0x3d23f6fe	0.040030472
73	0xbdab1c3b	-0.08354994
74	0x3af02e00	0.0018324256
75	0x3d4a6fda	0.049423076
76	0x3c8f22b8	0.01747261
77	0x3d8de983	0.069293045
78	0x3d9f52c5	0.07779459
79	0xbcdf2e18	-0.027243659
80	0xbd2685c4	-0.040654913
81	0x3d82e0fd	0.06390569
82	0x3d48fc36	0.049068652
83	0x3ba0dab0	0.004908882
84	0x3ca683f0	0.020326585
85	0x3d62d356	0.055377327
86	0x3d82ce1b	0.06386968
87	0x3d98e1cd	0.07464943
88	0x3d95301b	0.07284566
89	0x3bd86320	0.0066036135
90	0x3d4e6ce6	0.050396822
91	0x3c4bea10	0.012445942
92	0x3d8907ad	0.06690917
93	0xbd9d6711	-0.07685674
94	0xbb96c010	-0.0046005324
95	0x3d1c40d2	0.038147755
96	0x3c582eb0	0.013194725
97	0xbd87c1d7	-0.06628769
98	0x3d8dd1a3	0.06924751
99	0xbd7eeae2	-0.06223572
100	0x3d0d36fc	0.034476265
101	0x3d96fcd7	0.07372444
102	0x3daa8639	0.08326382
103	0xbd4a9111	-0.049454752
104	0x3da0d651	0.078533776
105	0x3d15b236	0.03654691
106	0xbd8cc546	-0.068735644
107	0x3d23439e	0.039859407
108	0xbdb3b2c7	-0.087743334
109	0x3da2d8b3	0.07951488
110	0xbd95d516	-0.073160335
111	0xbd6105c7	-0.05493715
112	0x3c53ef60	0.012935489
113	0xbd84f6cd	-0.06492386
114	0x3d08caf2	0.03339667
115	0x3cdd7aa8	0.027036026
116	0xbda5d907	-0.08098035
117	0xbc58c778	-0.013231151
118	0xbca9a448	-0.020708218
119	0xbdb012d2	-0.0859734
120	0xbcb0bf10	-0.02157548
121	0xbc951600	-0.018198967
122	0x3d9d9dcd	0.07696114
123	0x3d6851ba	0.056718566
124	0xbd3a44b2	-0.04547567
125	0xbd810039	-0.062988706
126	0xbd1541f1	-0.03643984
127	0xbd830e40	-0.06399202
128	0x3d231716	0.03981694
129	0xbd60f0e6	-0.05491724
130	0xbd0668c1	-0.032814745
131	0xbd24681a	-0.04013834
132	0x3cc05804	0.02347947
133	0xbdb3ebcf	-0.08785211
134	0xbcf21a70	-0.029553622
135	0x3daea2eb	0.08527168
136	0x3d17282e	0.036903553
137	0x3d121754	0.03566678
138	0x3d92cd8b	0.071681105
139	0xbdb3cffd	-0.08779905
140	0xbd9b2f6e	-0.07577406
141	0xbbd4bbc0	-0.006492108
142	0xbc01c340	-0.007920086
143	0xbd51d0c8	-0.0512245
144	0xbc5293e8	-0.012852646
145	0xbd4277b8	-0.047477454
146	0x3c836880	0.01604104
147	0xbd18987d	-0.0372548
148	0x3c476d08	0.012171991
149	0x3d4ae1ba	0.049531676
150	0x3dab235f	0.08356356
151	0xbd6afc86	-0.05736973
152	0xbca04b58	-0.019567177
153	0x3db160c5	0.086610354
154	0x3d89bfab	0.06726011
155	0x3d91baf5	0.07115737
156	0xbd7e9849	-0.06215695
157	0xbd78ed26	-0.060773037
158	0xbd247bab	-0.040157
159	0xbc60d428	-0.013722457
160	0x3d82e08d	0.06390486
161	0xbd8cb0bb	-0.06869646
162	0xbca10874	-0.019657351
163	0x3b8f0610	0.0043647364
164	0xbd68889f	-0.056770917
165	0x3d1efd82	0.038815983
166	0x3cd69578	0.02619432
167	0xbd485ef3	-0.048918676
168	0x3d2a618e	0.04159694
169	0x3cdbf908	0.026852146
170	0x3b0fdca0	0.002195157
171	0x3c9bd740	0.019023538
172	0xbd44284e	-0.04789
173	0x3d61c172	0.055116124
174	0x3d9bc109	0.07605178
175	0x3d23a5c6	0.039953016
176	0xbdae137a	-0.084998086
177	0x3d95f139	0.073214
178	0xbb1550c0	-0.0022783726
179	0xbd876d3e	-0.06612633
180	0xbda1a8a1	-0.078934915
181	0x3d9e56f9	0.077314325
182	0x3d44f33a	0.04808352
183	0x3b07e980	0.0020738542
184	0xbc0af5b0	-0.008481428
185	0x3d8e5075	0.0694894
186	0x3d75651e	0.059910886
187	0xbce052c6	-0.02738322
188	0xbbab9e50	-0.005237378
189	0xbd9f6fc6	-0.07784991
190	0xbb9a56a0	-0.0047100335
191	0xbda8b685	-0.08237938
192	0x3d38b8fa	0.045098282
193	0x3da5eac9	0.08101422
194	0xbd5e4d80	-0.05427313
195	0x3d58673a	0.05283282
196	0xbd092efa	-0.033492066
197	0xbd756d38	-0.059918612
198	0xbc0b7730	-0.008512303
199	0xbd75e99e	-0.060037248
200	0x3c6cb4a0	0.014447361
201	0xbc04a480	-0.0080958605
202	0xbdb3d385	-0.087805785
203	0x3b2d6e80	0.0026463568
204	0x3bef1a10	0.007296808
205	0xbcb4c5a0	-0.022066891
206	0x3d06c670	0.03290409
207	0x3c9f6f50	0.019462258
208	0xbceb27a0	-0.028705418
209	0xbd0d2e73	-0.034468126
210	0xbcddf462	-0.02709407
211	0xbd4df485	-0.05028202
212	0x384a8000	4.8279762e-05
213	0x3c956974	0.01823876
214	0x3d90c23b	0.070682965
215	0xbd0e240f	-0.034702357
216	0x3da2d36f	0.07950484
217	0xbc5e7518	-0.013577722
218	0x3d26f98e	0.040765338
219	0x3ce92ca8	0.028463677
220	0xbd9fa7f3	-0.07795706
221	0x3d0bf9aa	0.034173645
222	0xbda609d1	-0.08107341
223	0x3ce1462c	0.02749928
224	0x3cd10c34	0.025518514
225	0xbcb1e7ec	-0.021717034
226	0xbd8e5947	-0.06950622
227	0xbd139720	-0.036032796
228	0xbc9ffdac	-0.01953014
229	0x3d552a12	0.052042075
230	0x3d853963	0.06505086
231	0xbd343605	-0.04399683
232	0xbd81de51	-0.063412316
233	0x3d205e42	0.03915239
234	0x3d25a9ce	0.04044514
235	0x3ca8b154	0.02059237
236	0xbd97d8e7	-0.07414418
237	0xbda8f135	-0.082491316
238	0x3d1e4212	0.03863723
239	0x3b773960	0.0037723407
240	0xbca8ffd8	-0.020629808
241	0x3da7537f	0.081702225
242	0x3db3470d	0.08753786
243	0xbd0ca12e	-0.0343334
244	0xbcdbf85e	-0.02685183
245	0x3d4edeca	0.050505437
246	0x3cf25eb4	0.029586174
247	0x3d8dc84f	0.069229715
248	0xbd29b9c1	-0.041436914
249	0xbd387db2	-0.045041747
250	0xbc745f30	-0.014915273
251	0x3d923a5d	0.07140038
252	0x3d9d0ea7	0.0766881
253	0x3d982f95	0.074309506
254	0x3d8714eb	0.06595787
255	0xbb150760	-0.0022739992

fc2.bias f4 [128]
0	0x3d9d0a13	0.07667937
1	0xbd816c58	-0.06319493
2	0x3d1faaf2	0.038981386
3	0x3d7a7bee	0.061153345
4	0x3d0e1bf0	0.034694612
5	0xbdb4baf5	-0.08824722
6	0x3d469f32	0.048491664
7	0x3da492fb	0.08035847
8	0x3d99cff3	0.07510366
9	0x3c6d3b10	0.014479414
10	0xbd792c04	-0.060832992
11	0xbd8d7cf6	-0.069086
12	0xbd96ca49	-0.073628016
13	0x3da47deb	0.080318294
14	0xbc6a4428	-0.014298476
15	0xbd939c62	-0.07207562
16	0xbb4a4fe0	-0.0030870363
17	0x3ca1f754	0.019771256
18	0x3d94fccd	0.072747804
19	0x3ce8a0a4	0.028396912
20	0xbd6d392e	-0.05791586
21	0x3d93cb7b	0.07216545
22	0xbd4cac50	-0.049969018
23	0x3da8dcc1	0.082452305
24	0x3ce94474	0.028475024
25	0x3d5fb0f2	0.054612108
26	0xbcdd2d6c	-0.026999198
27	0x3db0a92d	0.08626018
28	0xbd2f6fc1	-0.042831186
29	0x3d58b4a2	0.05290664
30	0x3d371d76	0.04470583
31	0xbce73a56	-0.028226059
32	0x3d38c0e2	0.045105822
33	0x3c2c0dc8	0.010501333
34	0x3d336fba	0.043807723
35	0x3d74d6de	0.059775226
36	0x3dacac19	0.084312625
37	0x3c288cd8	0.010287486
38	0xbd8bd7ce	-0.06828271
39	0x3cefaf80	0.02925849
40	0x3d0cebd4	0.03440459
41	0xbd41fdf7	-0.04736134
42	0xbd68c6cb	-0.05683021
43	0x3c5e6210	0.013573185
44	0x3d9a6991	0.075396664
45	0x3d79e542	0.061009653
46	0xbdac59e2	-0.08415581
47	0xbd0aa9e0	-0.03385341
48	0xbd5fb1ce	-0.054612927
49	0xbd9052ed	-0.07047067
50	0xbc82cba0	-0.015966237
51	0xbc9d228c	-0.019181512
52	0xbca5f9a4	-0.02026064
53	0x3d826fcb	0.06368979
54	0xbc80ff38	-0.015746698
55	0x3d71a166	0.058991812
56	0x3cee1ae8	0.029065564
57	0xbcb1294c	-0.021626137
58	0xbce06f1e	-0.027396735
59	0x3db1b017	0.086761646
60	0x3d8a23c9	0.06745107
61	0xbd5bcfca	-0.05366496
62	0xbc6ac470	-0.014329061
63	0x3cf78e4c	0.03021922
64	0x3bc90120	0.0061341673
65	0x3d5f10b6	0.054459296
66	0xbd2d9604	-0.042379394
67	0xbd6711e4	-0.056413546
68	0xbda83ce7	-0.08214741
69	0x3cdfb824	0.027309485
70	0x3d59380e	0.053031974
71	0x3d4392c6	0.047747396
72	0x3d433256	0.047655426
73	0x3d48cd22	0.049023755
74	0x3d27dd5e	0.040982597
75	0x3d8794ad	0.066201545
76	0x3d684952	0.05671055
77	0x3d887e47	0.066647105
78	0xbcef40ba	-0.029205669
79	0xbd99a077	-0.07501309
80	0x3d01bd72	0.03167481
81	0xbd29b6fb	-0.04143427
82	0x3da910d9	0.082551666
83	0x3dae0131	0.08496321
84	0xbd851496	-0.06498067
85	0x3d78b272	0.060717054
86	0xbd8d0cb8	-0.068871915
87	0x3da59875	0.080857195
88	0x3d815203	0.063144706
89	0xbce1e73c	-0.027576081
90	0x3d051cb6	0.032498084
91	0x3d532882	0.051552303
92	0x3daa03a7	0.08301478
93	0xbda61db0	-0.08111131
94	0x3d4ac432	0.049503513
95	0xbd0b4f2c	-0.03401105
96	0xbd7d3968	-0.061822325
97	0xbc0fe3a0	-0.008782297
98	0x3c89e0e4	0.016830869
99	0xbd0cb081	-0.034348015
100	0x3cf48430	0.029848188
101	0xbd5cb8dc	-0.053887233
102	0x3d1b9672	0.037985273
103	0x3cb8b080	0.0225451
104	0x3aaf5f80	0.0013379902
105	0xba9cd1c0	-0.0011964366
106	0xbc98218c	-0.018570684
107	0x3d85ae2d	0.06527362
108	0x3ac91340	0.001534082
109	0x3d5c501a	0.05378733
110	0xbd6fc604	-0.05853845
111	0xbd7f3f3e	-0.06231617
112	0xbd2183a0	-0.039432168
113	0xbcae99c8	-0.021313563
114	0xbcdef746	-0.027217519
115	0xbbd963e0	-0.0066342205
116	0x3da33ea3	0.079709314
117	0xbdac3a6f	-0.08409583
118	0x3c080d90	0.008304015
119	0xbcfd106a	-0.030891616
120	0xbce6ee1a	-0.028189708
121	0x3d50f9ee	0.0510196
122	0xbc1437e0	-0.009046525
123	0xbc982534	-0.018572427
124	0xbdac2e42	-0.084072605
125	0x3d377566	0.044789694
126	0xbc630578	-0.013856284
127	0x3d3ae822	0.045631535

fc3.weight f4 [4, 128]
0	0xbd5b4113	-0.053528856
1	0x3ba55750	0.005045809
2	0x3da61f73	0.08111467
3	0x3d5c4622	0.05377782
4	0x3c7d9228	0.015476741
5	0x3d65db26	0.0561172
6	0x3b8af8f0	0.0042411014
7	0xbca98000	-0.020690918
8	0x3d0f04ac	0.034916565
9	0xbd4cc063	-0.04998816
10	0xbd8deab8	-0.06929535
11	0xbdac1213	-0.08401885
12	0xbd91dcb6	-0.071221754
13	0xbd9dbf29	-0.077024765
14	0xbd8cb71b	-0.06870862
15	0xbd70ae3c	-0.058759913
16	0xbcbcc80c	-0.023044609
17	0x3d9331f7	0.071872644
18	0xbc461730	-0.012090489
19	0xbd6a92fa	-0.057269074
20	0xbc4accc0	-0.012377918
21	0x3c284c28	0.010272063
22	0x3b055fc0	0.002035126
23	0x3daeee5b	0.085415564
24	0xbce0af62	-0.027427379
25	0xbd5efdd6	-0.054441296
26	0xbc4d69b0	-0.012537405
27	0xbd958c9c	-0.0730221
28	0xbccf7f68	-0.025329307
29	0xbd154769	-0.036445055
30	0x3da8cfc9	0.08242757
31	0xbd61b6c4	-0.05510594
32	0xbc1afa18	-0.009459041
33	0xbd4d9d1e	-0.050198667
34	0xbc8e1ee0	-0.017348707
35	0xbc1eab90	-0.009684458
36	0x3d19a1d6	0.037507854
37	0xbbc13ab0	-0.0058968887
38	0x3d0374e4	0.032093897
39	0xbc8171ec	-0.015801392
40	0xbd8b22ee	-0.06793772
41	0xbdb4ccca	-0.08828123
42	0xbcc978e4	-0.024593778
43	0xbc437270	-0.0119291395
44	0xbd0a67ac	-0.033790275
45	0xbc888428	-0.01666458
46	0xbca55374	-0.020181395
47	0xbda43fd1	-0.080199845
48	0xbd8cff4e	-0.06884633
49	0xbc9ef260	-0.019402683
50	0xbdb391ee	-0.08768068
51	0x3da0f9f1	0.078601725
52	0xbda43ac2	-0.0801902
53	0x3c044ff8	0.008075707
54	0xbc251800	-0.010076523
55	0xbcddb704	-0.027064808
56	0x3c9cb680	0.019129992
57	0xbd23416a	-0.039857306
58	0x3d0b2e98	0.033979982
59	0x3da16abd	0.07881687
60	0x3b8af810	0.004240997
61	0xbd25284a	-0.040321626
62	0x3d168eaa	0.03675715
63	0xbd2ca23a	-0.0421469
64	0x3d800c29	0.06252319
65	0xbd1bb3e0	-0.03801334
66	0x3c4cbad0	0.012495711
67	0xba745900	-0.00093211234
68	0xbd04a73c	-0.03238605
69	0x3d8f77d3	0.070052765
70	0x3b37bc60	0.0028035864
71	0x3c96af60	0.018394172
72	0x3cf51550	0.02991739
73	0xbaf984c0	-0.0019036755
74	0xbab88e00	-0.0014080405
75	0x3d783c1a	0.060604192
76	0x3d1ffee6	0.03906145
77	0xbda78f64	-0.081816465
78	0x3c8648a8	0.016392067
79	0x3cb49a44	0.022046216
80	0xbba34e40	-0.0049836934
81	0x3d9f6d6d	0.07784543
82	0xbd25cc4b	-0.040478032
83	0xbce8c4c6	-0.028414141
84	0xbd454aa3	-0.048166882
85	0x3daca67f	0.08430194
86	0xbd5c5af2	-0.05379767
87	0xbd8d0b42	-0.06886913
88	0x3b84cc00	0.004052639
89	0xbd857ad7	-0.065175705
90	0x3d863e05	0.06554798
91	0x3d8f3a51	0.06993545
92	0x3da0a373	0.078436755
93	0xbd9b4143	-0.07580807
94	0xbcf376bc	-0.029719703
95	0xbd903db4	-0.07043019
96	0xbcf33614	-0.029688872
97	0x3d29f6c2	0.041495092
98	0x3d5b31ca	0.05351428
99	0xbd80cc52	-0.06288971
100	0x3d936d21	0.07198549
101	0x3d03fed4	0.032225445
102	0xbd56d2ff	-0.052447315
103	0x3d0ac916	0.033883177
104	0x3d8fc7a1	0.07020498
105	0xbd2ff234	-0.042955592
106	0x3d84025b	0.06445762
107	0x3d60deb2	0.05489988
108	0xbdb49d1d	-0.088190295
109	0xbd1cab9d	-0.0382496
110	0xbaa5bd00	-0.0012644827
111	0xbd4b8e09	-0.049696002
112	0xbc28cb88	-0.010302432
113	0xbd7b3a82	-0.061335094
114	0x3d3baebe	0.045820944
115	0xbd027e88	-0.03185895
116	0x3db204f5	0.08692352
117	0x3d9f6473	0.07782831
118	0x3bd2bc00	0.0064311028
119	0x3d913f81	0.070921905
120	0xbc8cee1c	-0.017203383
121	0xbd8a7591	-0.06760705
122	0x3d44c2c6	0.048037313
123	0x3cbcf368	0.023065284
124	0xbc043328	-0.008068837
125	0x3d8e4621	0.0694697
126	0xbd616890	-0.05503136
127	0x3daf76b9	0.085675664
128	0xbd84a582	-0.064768806
129	0xbcfe75dc	-0.03106206
130	0xbd8ba237	-0.068180494
131	0x3d1efa2a	0.038812794
132	0x3d1c0fda	0.038101055
133	0x3d53c226	0.051698826
134	0xbd6a787e	-0.057243817
135	0x3d796fa6	0.060897492
136	0xbd431168	-0.04762402
137	0xbd35b713	-0.044364046
138	0x3da28497	0.07935446
139	0xbd805888	-0.06266886
140	0xbd0a6e34	-0.033796504
141	0x3c5de040	0.013542235
142	0x3d3128f2	0.04325194
143	0x3c4e1ca0	0.012580067
144	0x3d209362	0.039203055
145	0xbd7b3f92	-0.061339922
146	0x3da4edf7	0.08053201
147	0xbd48caeb	-0.049021643
148	0x3d6f456a	0.058415808
149	0x3b266000	0.002538681
150	0xbc841984	-0.016125448
151	0xbcc4de1c	-0.024031691
152	0x3d30b1c2	0.043138273
153	0x3d164106	0.036683105
154	0xbd327294	-0.0435663
155	0xbd585820	-0.052818418
156	0xbd547296	-0.05186709
157	0x3c37fc80	0.011229634
158	0xbd8b8774	-0.06812945
159	0xbbbfdb60	-0.005855009
160	0xbc27fa60	-0.010252565
161	0x3d975705	0.073896445
162	0x3d932d87	0.07186418
163	0x3b23a8a0	0.0024972335
164	0x3d68f526	0.056874417
165	0x3d177e62	0.036985762
166	0xbd22cc14	-0.039745405
167	0x3d801f9b	0.06256028
168	0xbcd5551a	-0.026041556
169	0x3d5b2f16	0.0535117
170	0x3d48fada	0.049067356
171	0x3daa111f	0.08304047
172	0x3db4d005	0.08828739
173	0x3da25615	0.07926575
174	0xbc9b4734	-0.01895485
175	0xbd8e6d48	-0.069544375
176	0x3bf31040	0.0074177086
177	0xbccd1b5c	-0.02503746
178	0xbd7f0fb8	-0.06227085
179	0xbc5a7598	-0.013333701
180	0xbd5ce891	-0.05393273
181	0x3d58f3ee	0.052967004
182	0xbc365b50	-0.011130169
183	0xbd50d0da	-0.050980426
184	0x3cc0cca0	0.023535073
185	0x3d922551	0.07136024
186	0xbd44c5fa	-0.048040368
187	0xbdaefef6	-0.08544724
188	0xbcfd0eb2	-0.030890796
189	0xbda76f0b	-0.08175477
190	0xbdb22f0b	-0.08700379
191	0xbd929d7b	-0.07158943
192	0x3d851749	0.06498582
193	0xbd033677	-0.032034364
194	0xbda7d8c6	-0.08195643
195	0xbd4ed8c0	-0.050499678
196	0x3c682e80	0.014171243
197	0x3d8dc583	0.06922438
198	0xbd94f122	-0.07272555
199	0xbd60a7d0	-0.05484754
200	0xbd0f14ea	-0.034932055
201	0xbc73ba00	-0.014875889
202	0xbd982ae6	-0.07430057
203	0xbda9c030	-0.0828861
204	0xbc7eb3d0	-0.0155458
205	0x3d0d67e0	0.03452289
206	0x3ab999c0	0.0014160201
207	0x3d1a0efa	0.03761194
208	0x3d2aa982	0.04166556
209	0xbd18840a	-0.037235297
210	0x3d06f554	0.032948807
211	0x3d384e66	0.04499664
212	0x3d46ec32	0.048565097
213	0x3d971a69	0.07378084
214	0xbc94b5c8	-0.018153086
215	0xbd9c69bc	-0.07637355
216	0x3b48b120	0.0030623153
217	0x3d83caa9	0.06435139
218	0xbbf14630	-0.0073631033
219	0x3da221d1	0.07916606
220	0xbd254fdb	-0.04035936
221	0xbd993bdc	-0.074821204
222	0x3d6f11a6	0.05836644
223	0xbc44ad48	-0.012004204
224	0x3d7d6ec6	0.06187322
225	0x3da674a9	0.0812772
226	0x3d25df72	0.040496297
227	0xbc812c78	-0.015768275
228	0x3d6d5aee	0.057948045
229	0x3b1fee00	0.0024403334
230	0x3c549608	0.012975223
231	0xbd0da37c	-0.03457974
232	0x3c581490	0.013188496
233	0x3cc11c38	0.023573026
234	0xbce24b9a	-0.02762394
235	0xbc253808	-0.01008416
236	0xbd6326c2	-0.055456884
237	0xbd4583d6	-0.04822143
238	0x3b8a2c20	0.004216686
239	0xbd99c894	-0.0750896
240	0x3d1c741e	0.038196675
241	0x3b80f9a0	0.0039360076
242	0x3dacc567	0.08436089
243	0x3d54f53e	0.051991694
244	0xbd8a89ca	-0.067645624
245	0xbd8006a8	-0.062512696
246	0x3db0f6d3	0.08640828
247	0xbda2ee84	-0.079556495
248	0x3d9e89e3	0.077411436
249	0x39b19800	0.0003387332
250	0x3b634fe0	0.003468506
251	0x3dab3615	0.08359925
252	0x3d06b1d4	0.032884434
253	0x3d99a10f	0.075014226
254	0x3d6094fa	0.054829575
255	0x3d99cbf1	0.07509602

fc3.bias f4 [4]
0	0x3bb7e9f0	0.0056126043
1	0xbd6f5a7e	-0.05843591
2	0xbdb0db25	-0.086355485
3	0x3ab6a9c0	0.0013936087
