ddqn_model.pt (torch, 104215 bytes, 6 tensors)

fc1.weight f4 [128, 66]
0.088595316 0.1219285 -0.06759658 -0.04605227 -0.0062592155 -0.08372039 0.11282761 0.025490416
-0.07097542 -0.04179314 -0.017504688 0.07756247 0.09706067 -0.0069414102 0.0328204 -0.099000804
0.09955587 0.07800132 -0.12050097 0.04629665 0.100550525 0.05239309 -0.0829649 0.10370138
0.082105845 0.012938272 -0.038427338 0.03968127 -0.04765601 -0.08849101 -0.066128075 0.0830111
-0.11375594 -0.11613343 0.01591101 -0.0042899786 -0.07813022 -0.04948103 -0.11690382 -0.039774776
-0.046529848 0.03691934 0.12216021 0.112873055 0.071078986 -0.019921103 -0.06728514 -0.0886199
-0.009342059 0.08020819 0.01469838 -0.096656844 -0.012457615 -0.0606096 -0.058807675 0.1041365
0.008311364 0.046282493 -0.051893905 -0.030052599 -0.03539607 0.003992095 0.06597607 -0.0027068104
0.033007033 -0.11000607 0.11190895 0.0103301 -0.06838634 0.09051533 0.06693422 -0.06740286
0.096969776 0.05830029 -0.099573754 -0.046449754 -0.110544 -0.09672987 -0.07838801 0.0067507676
0.044601638 -0.06329237 0.11371646 -0.11879031 0.08467407 -0.01887802 0.10161671 -0.108216435
0.04311227 -0.09698468 0.036574006 -0.10915223 -0.107206136 -0.022417422 -0.02410852 -0.10378185
0.10133954 0.06557896 -0.10505366 0.015846191 -0.014041425 -0.104896456 0.02444361 -0.0847821
-0.041735396 -0.11610214 0.0053255167 0.087608114 0.007498202 -0.10981683 0.014994913 0.076371126
0.02092898 -0.119317815 0.06837665 -0.06568476 0.047803156 -0.010194221 -0.0042954264 0.06389662
0.08593545 0.03028338 -0.061834473 -0.06257023 -0.1026814 -0.115145475 -0.021820629 0.10923791
-0.040825684 -0.056735665 0.07222413 -0.03832228 0.092991896 -0.09039836 -0.00682858 -0.107529484
0.056682397 0.016105471 -0.029646356 -0.015579225 0.0746046 -0.06360082 -0.017704925 -0.06528019
0.03243148 0.0035331736 -0.03980756 0.048297133 0.008224099 0.025159238 -0.01666799 0.06470128
-0.0664626 -0.06642758 0.10930273 -0.12166475 0.09090574 0.030408364 0.013485051 -0.09498792
0.07931561 -0.028613329 -0.080276735 -0.028843924 0.09979205 -0.025826067 0.09779977 0.0862305
0.08200825 0.009388905 0.033358704 -0.10190281 0.026413357 0.026575593 -0.029243464 0.09642514
-0.09595426 0.10875288 -0.017819293 -0.019569434 0.10963801 0.002621827 0.016287638 0.015489446
0.116025396 -0.10211739 -0.07394448 0.01997251 -0.06483092 0.04842789 0.04501664 0.08045853
-0.060556702 -0.06664811 -0.042117987 -0.009921157 -0.053221226 -0.060506783 -0.051026285 0.049506363
-0.07218316 -0.027940169 -0.070614815 0.051595137 -0.055004153 -0.08455337 -0.07217944 -0.10276111
-0.026204929 0.10385486 0.062879056 -0.033841502 0.028021196 -0.020698199 0.11612598 0.1214077
0.059146307 -0.095926695 0.110365935 0.09261714 -0.111520775 0.110049285 0.020804184 0.05088137
-0.10627183 -0.063275985 -0.04560374 0.0507249 -0.05158172 0.10183203 -0.0026840623 -0.07783964
-0.105924636 0.041181073 0.058238078 -0.07239476 0.039819483 -0.06029183 0.101192765 -0.033119168
-0.078273274 -0.0869152 -0.031376943 -0.079320826 -0.10888401 0.045768403 0.029469403 -0.09468394
0.005255761 0.007857367 -0.0665304 0.06269987 -0.007147465 -0.10695654 0.006700709 -0.005988666
00000000: 7671 b53d a6b5 f93d 1370 8abd 4ea1 3cbd
00000010: 1b1a cdbb 9975 abbd 2912 e73d 47d1 d03c
00000020: 905b 91bd 492f 2bbd fe65 8fbc 13d9 9e3d
00000030: bfc7 c63d c574 e3bb af6e 063d efc0 cabd
00000040: f3e3 cb3d 28bf 9f3d 36c9 f6bd 8ea1 3d3d
00000050: 6fed cd3d 239a 563d 80e9 a9bd 6461 d43d
00000060: 1c27 a83d 0cfb 533c fc65 1dbd d488 223d
00000070: f332 43bd c63a b5bd 286e 87bd b901 aa3d
00000080: e0f8 e8bd 5dd7 edbd ce57 823c f392 8cbb
00000090: bd02 a0bd 9fac 4abd 456b efbd e0ea 22bd
000000a0: 1596 3ebd bc38 173d 222f fa3d fd29 e73d
000000b0: dc91 913d 9531 a3bc cbcc 89bd 5a7e b5bd
000000c0: 6f0f 19bc 3144 a43d 79d1 703c 06f4 c5bd
000000d0: 061b 4cbc c641 78bd 51e0 70bd 8445 d53d
000000e0: 632c 083c b692 3d3d b48e 54bd de30 f6bc
000000f0: 78fb 10bd 1fd0 823b 761e 873d be64 31bb
00000100: 6232 073d dd4a e1bd 8530 e53d 943f 293c
00000110: 230e 8cbd 1a60 b93d cf14 893d 830a 8abd
00000120: 1798 c63d 49cc 6e3d 53ed cbbd 1942 3ebd
00000130: e564 e2bd 4f1a c6bd e589 a0bd 8b35 dd3b
00000140: 35b0 363d 6e9f 81bd 2de4 e83d 5648 f3bd
00000150: 9969 ad3d 14a6 9abc 6c1c d03d 94a0 ddbd
00000160: 7e96 303d e79f c6bd a0ce 153d 348b dfbd
00000170: e48e dbbd bea4 b7bc 3b7f c5bc 948b d4bd
00000180: 1b8b cf3d 434e 863d 6026 d7bd dfcf 813c
00000190: 010e 66bc f4d3 d6bd f73d c83c 3da2 adbd
000001a0: bcf2 2abd f5c6 edbd ac81 ae3b e26b b33d
000001b0: 7ab3 f53b a5e7 e0bd 39ad 753c 7768 9c3d
000001c0: 4173 ab3c e65c f4bd 0f09 8c3d bb85 86bd
000001d0: 3ecd 433d a905 27bc a6c0 8cbb 3bdc 823d
000001e0: edfe af3d da14 f83c 2546 7dbd d224 80bd
000001f0: a04a d2bd 64d1 ebbd 2dc1 b2bc 20b8 df3d
00000200: d538 27bd a863 68bd 3fea 933d d3f7 1cbd
00000210: 8972 be3d c622 b9bd 48c2 dfbb 6b38 dcbd
00000220: cd2b 683d 9fef 833c eadc f2bc 0140 7fbc
00000230: 4cca 983d 2641 82bd eb09 91bc 9fb1 85bd
00000240: dfd6 043d d18c 673b 410d 23bd 37d3 453d
00000250: 5fbe 063c bf1a ce3c 4f8b 88bc 1b82 843d
00000260: 8b1d 88bd 2f0b 88bd 1cda df3d 5e2b f9bd
00000270: ca2c ba3d f61a f93c 67f0 5c3c 0789 c2bd
00000280: 3970 a23d 8066 eabc 2168 a4bd 184a ecbc
00000290: c65f cc3d 3091 d3bc 3f4b c83d 9e99 b03d
000002a0: f1f3 a73d ecd3 193c 23a3 083d 6cb2 d0bd
000002b0: d360 d83c 0fb5 d93c fd8f efbc 8b7a c53d
000002c0: ab83 c4bd d4b9 de3d c4f9 91bc 1450 a0bc
000002d0: e589 e03d f5d2 2b3b a76d 853c 72c7 7d3c
000002e0: b99e ed3d ec22 d1bd 3470 97bd 649d a33c
000002f0: 13c6 84bd 535c 463d 5e63 383d 71c7 a43d
00000300: 4e0a 78bd ce7e 88bd e983 2cbd 598c 22bc
00000310: 80fe 59bd f6d5 77bd f000 51bd 2fc7 4a3d
00000320: c4d4 93bd c8e2 e4bc 809e 90bd 6c55 533d
00000330: 094c 61bd 512a adbd d0d2 93bd 6b74 d2bd
00000340: b8ab d6bc dbb1 d43d bcc6 803d 639d 0abd
00000350: b58c e53c 458f a9bc 75d3 ed3d 9aa4 f83d
00000360: 6643 723d 3775 c4bd 8907 e23d 0eae bd3d
00000370: 0165 e4bd 8561 e13d 896d aa3c fc68 503d
00000380: 0ca5 d9bd d796 81bd fdca 3abd eac4 4f3d
00000390: 5b47 53bd 508d d03d 18e7 2fbb 646a 9fbd
000003a0: 04ef d8bd 7cad 283d 0d8b 6e3d b443 94bd
000003b0: c119 233d 91f4 76bd 273e cf3d f7a7 07bd
000003c0: bd4d a0bd 9900 b2bd 1c85 00bd f572 a2bd
000003d0: 94fe debd a677 3b3d d169 f13c a7e9 c1bd
000003e0: 8538 ac3b 30bc 003c 1741 88bd ca68 803d
000003f0: 4835 eabb 080c dbbd 9f91 db3b 923c c4bb

fc1.bias f4 [128]
0.079253025 0.014722687 -0.021248609 -0.04644268 0.040047843 0.112619735 -0.10135221 -0.07754907
-0.04418739 0.07484674 -0.11580486 -0.08305878 -0.12071629 0.11616696 -0.085719384 -0.04685581
0.022124054 -0.08386716 -0.11168469 0.113204606 0.08244559 0.05432801 -0.1015735 -0.02230175
0.11237908 0.04808144 -0.07430881 -0.10239306 -0.086516604 -0.011220073 -0.023492357 -0.057013202
0.00084962597 0.029910851 -0.08340002 0.0897047 -0.016589014 0.07441759 -0.02222948 -0.116082765
0.11488843 -0.0116116945 -0.05766103 -0.011084938 -0.006670348 0.04232474 0.031982582 -0.065198235
-0.0056044017 0.04485459 -0.0055120615 -0.076079816 -0.07852287 -0.007977111 -0.105719 0.06478473
-0.0077421153 -0.02382577 0.1110946 0.00774123 -0.05954715 -0.11448834 -0.11191938 -0.11930664
0.09693624 -0.077417195 -0.04973286 0.018994808 0.081036694 -0.04739785 -0.030385826 -0.060618915
0.0070187096 0.10889071 0.12256925 0.042561293 -0.011612812 0.11857797 -0.09705173 -0.10161969
-0.021227375 -0.11423055 -0.07462919 0.09213881 0.094605714 0.02233416 -0.07162288 0.07332011
0.1203229 -0.024878908 -0.012147112 0.106548995 0.014420193 0.053094562 0.01161663 0.0488224
0.07475286 0.0017695553 -0.018370822 0.052005664 -0.021595994 -0.017519217 -0.05964028 -0.009540523
-0.055444483 0.0135194175 -0.018375851 -0.03414325 0.05864563 0.089397 0.12301032 -0.11545617
0.046190474 -0.038449313 0.08492739 -0.10909039 -0.068927996 0.009814334 -0.047761437 0.006228016
0.04256018 0.04000761 0.067434154 -0.0018334442 -0.09456771 0.054323535 -0.12022455 0.048262116
00000000: 694f a23d 6d37 713c 9011 aebc ae3a 3ebd
00000010: 3509 243d 2da5 e63d bf91 cfbd 0cd2 9ebd
00000020: d6fd 34bd 3f49 993d 192b edbd b91a aabd
00000030: 1a3a f7bd f1e8 ed3d a58d afbd e1eb 3fbd
00000040: 813d b53c 8cc2 abbd f1ba e4bd d1d7 e73d
00000050: 3cd9 a83d 0c87 5e3d c405 d0bd 29b2 b6bc
00000060: 0127 e63d 0bf1 443d 382f 98bd 74b3 d1bd
00000070: 9e2f b1bd 66d4 37bc 0b73 c0bc ad86 69bd
00000080: 6fb9 5e3a 9a07 f53c a1cd aabd 19b7 b73d
00000090: afe5 87bc 4068 983d 991a b6bc cdbc edbd
000000a0: a04a eb3d fa3e 3ebc f92d 6cbd 9a9d 35bc
000000b0: ef92 dabb b55c 2d3d 2b00 033d a786 85bd
000000c0: 21a5 b7bb 72b9 373d 869e b4bb bccf 9bbd
000000d0: 99d0 a0bd 6eb2 02bc 3483 d8bd dbad 843d
000000e0: 92b1 fdbb 432e c3bc 9185 e33d 25aa fd3b
000000f0: b6e7 73bd dd78 eabd fd35 e5bd 0a57 f4bd
00000100: 8286 c63d e88c 9ebd afb4 4bbd 009b 9b3c
00000110: 91f6 a53d 3f24 42bd b2eb f8bc 8a4b 78bd
00000120: 34fd e53b 1802 df3d 9605 fb3d c054 2e3d
00000130: aa43 3ebc 02d9 f23d 0fc3 c6bd fc1d d0bd
00000140: 08e5 adbc b5f1 e9bd 30d7 98bd 46b3 bc3d
00000150: a4c0 c13d 21f6 b63c 04af 92bd db28 963d
00000160: da6b f63d dace cbbc ae04 47bc 5c36 da3d
00000170: ac42 6c3c af79 593d ad53 3e3c fff9 473d
00000180: 0718 993d 6cf0 e73a 687e 96bc e403 553d
00000190: 15ea b0bc 7684 8fbc 5e49 74bd db4f 1cbc
000001a0: c119 63bd 8c80 5d3c f488 96bc cbd9 0bbd
000001b0: 6636 703d c615 b73d d6ec fb3d 4974 ecbd
000001c0: 3932 3d3d 077d 1dbd 69ee ad3d c86a dfbd
000001d0: 1f2a 8dbd 4dcc 203c 7fa1 43bd 6314 cc3b
000001e0: 9553 2e3d 05df 233d eb1a 8a3d 2e50 f0ba
000001f0: b7ac c1bd 5b82 5e3d 4a38 f6bd 7fae 453d

fc2.weight f4 [128, 128]
-0.07365838 0.04593865 -0.028455378 0.0836064 -0.02774925 -0.025711887 -0.06150218 0.0669372
-0.0061938367 -0.00083353155 0.054537 0.018214919 -0.009929259 -0.051120907 -0.067452036 -0.03252796
0.020241106 -0.08041308 -0.0474053 0.021981189 -0.028573284 -0.004308791 0.00067106215 0.07360175
0.029885147 -0.08543254 0.0010187573 -0.014542104 0.039447695 0.023882393 -0.013363142 0.052534282
-0.087430045 -0.081468076 -0.07927463 0.04649334 -0.006859919 0.044008948 0.07435724 -0.06734028
0.03505818 0.069568746 -0.041112904 -0.020068437 0.0668314 0.008233319 -0.06919994 -0.036786344
-0.082634844 0.08071632 -0.041079372 0.057271734 0.062477835 -0.017034931 -0.017561128 0.044905998
0.040010214 0.05935902 0.078355975 -0.071710795 -0.07134125 0.049182635 0.08726315 0.047780808
0.06350323 0.06382435 -0.08574844 -0.013679605 0.08351327 0.08029536 0.059007723 -0.059110917
-0.08019329 0.005337578 -0.058204923 0.034157403 0.0514953 0.0052208365 0.060837958 -0.041588247
0.045142554 0.05349913 -0.07083908 0.012972638 -0.038276464 -0.023597037 -0.03132814 -0.031439338
0.06125296 -0.049235534 -0.0149503965 0.06756603 0.08142338 -0.026449678 0.024874626 0.087991074
-0.034538876 0.022113625 0.019822942 0.052969396 -0.08453251 0.06591349 0.007003483 -0.028627487
-0.05041198 -0.0288687 -0.046450872 -0.040849898 -0.060378633 -0.038920566 0.031890564 -0.08555324
0.036481246 0.04616999 -0.0049636518 0.041082352 0.02898884 0.009570792 0.08515463 -0.048224863
0.083803095 0.021942262 -0.048387285 0.055313725 -0.02512869 0.012614078 -0.020806419 -0.020144807
0.013866057 -0.008771623 -0.0052757845 -0.04821145 -0.057480726 -0.00757769 -0.056793038 0.01493121
-0.068133764 -0.061881043 0.011562986 0.060802568 0.022380726 -0.009063687 0.06507083 0.05164431
-0.062697254 0.0602896 0.07840664 0.006788859 0.017194185 -0.06764425 0.009556916 0.0075928704
0.022861104 -0.0039130603 0.0821893 0.007690054 0.013770036 -0.05655015 0.07681072 -9.3706054e-05
0.021541793 0.032539885 0.08351327 0.023369793 -0.010811316 0.0008304233 -0.014267084 -0.05865047
-0.008161142 -0.05654717 -0.047180664 0.05978296 0.0086709475 0.07518351 -0.07246107 -0.023940695
0.022140445 -0.059501328 -0.004101851 -0.063004225 -0.054781754 -0.0062200534 0.035137158 0.058643393
-0.0790161 -0.003557807 -0.06857931 -0.07045611 -0.0142229395 0.086600795 -0.013673086 0.07243797
-0.061504044 -0.053765118 -0.010363535 -0.03679864 0.0454145 -0.02115138 -0.057178605 -0.081496395
0.013138878 0.06967976 0.019352809 0.0877005 -0.03195613 -0.058214977 0.010610055 0.018591544
-0.053147092 -0.05471097 -0.039806444 0.034017336 0.053286415 0.08481041 -0.0024429895 -0.06022329
0.019184237 0.07620573 0.06601929 -0.013436716 0.046674393 -0.050083783 0.040359277 0.00085507426
-0.07803634 -0.017353816 0.034379434 0.0053464714 -0.020646045 -0.010085069 -0.05747402 0.07452935
-0.008703823 -0.07652238 -0.075237155 -0.05782457 0.055739153 -0.07224649 0.023707118 0.028430792
-0.08281515 -0.05506525 -0.04923181 0.062071405 -0.058137868 -0.050818786 -0.08504809 -0.0054278695
0.0047041844 0.055666137 0.08020819 0.01703046 -0.08474559 -0.008811764 0.06527572 -0.04066922
00000000: 34da 96bd 2a2a 3c3d 411b e9bc d539 ab3d
00000010: 6552 e3bc bca1 d2bc b6e9 7bbd 5f16 893d
00000020: abf5 cabb 5b81 5aba 3062 5f3d 7437 953c
00000030: 55ae 22bc 2864 51bd 4b24 8abd 0a3c 05bd
00000040: add0 a53c 9daf a4bd 0f2c 42bd e511 b43c
00000050: 8512 eabc c230 8dbb 38ea 2f3a 84bc 963d
00000060: b2d1 f43c 41f7 aebd d387 853a 0142 6ebc
00000070: e893 213d 02a5 c33c 14f1 5abc 302e 573d
00000080: 860e b3bd bcd8 a6bd bd5a a2bd cd6f 3e3d
00000090: 2cc9 e0bb ba42 343d 9c48 983d b3e9 89bd
000000a0: 2b99 0f3d 0f7a 8e3d 0166 28bd 9066 a4bc
000000b0: e7de 883d 0be5 063c b3b8 8dbd 47ad 16bd
000000c0: 753c a9bd 994e a53d d842 28bd c495 6a3d
000000d0: c2e8 7f3d d78c 8bbc 5bdc 8fbc 5aef 373d
000000e0: c0e1 233d 7222 733d 1979 a03d 1cdd 92bd
000000f0: 5c1b 92bd bb73 493d 06b7 b23d cfb5 433d
00000100: fb0d 823d 57b6 823d e19c afbd 6c20 60bc
00000110: 0109 ab3d e571 a43d 15b2 713d 4a1e 72bd
00000120: 613c a4bd d9e6 ae3b 4968 6ebd a2e8 0b3d
00000130: bcec 523d 8d13 ab3b 3931 793d 7058 2abd
00000140: 66e7 383d e721 5b3d 1414 91bd 308b 543c
00000150: c8c7 1cbd 934e c1bc f051 00bd 89c6 00bd
00000160: 62e4 7a3d 33ab 49bd 82f2 74bc 0f60 8a3d
00000170: 4dc1 a63d ffac d8bc dfc5 cb3c aa34 b43d
00000180: a378 0dbd a227 b53c b963 a23c 70f6 583d
00000190: 611f adbd a7fd 863d 797d e53b 3184 eabc
000001a0: cb7c 4ebd 0d7e ecbc 4543 3ebd 3952 27bd
000001b0: 964f 77bd 2c6b 1fbd ae9f 023d 8936 afbd
000001c0: 5c6d 153d be1c 3d3d 21a6 a2bb f845 283d
000001d0: 017a ed3c d0ce 1c3c 8d65 ae3d 6f87 45bd
000001e0: f5a0 ab3d 42c0 b33c bf31 46bd a590 623d
000001f0: afda cdbc 47ab 4e3c 3972 aabc b906 a5bc
00000200: 752e 633c dab6 0fbc 7de0 acbb 5f79 45bd
00000210: e970 6bbd 454e f8bb d19f 68bd 09a2 743c
00000220: b789 8bbd fa76 7dbd ae72 3d3c 1d0c 793d
00000230: c957 b73c dc7f 14bc db43 853d fc88 533d
00000240: 6b67 80bd 3af2 763d a993 a03d 1475 de3b
00000250: d2da 8c3c 1289 8abd 9c94 1c3c 9dcd f83b
00000260: 3647 bb3c 2139 80bb dd52 a83d d9fc fb3b
00000270: b89b 613c 21a1 67bd f04e 9d3d 0e84 c4b8
00000280: 6a78 b03c 8b48 053d 0109 ab3d 0272 bf3c
00000290: f221 31bc c4b0 593a 7dc0 69bc 7a3b 70bd
000002a0: 4fb6 05bc 019e 67bd 8340 41bd fade 743d
000002b0: 9710 0e3c d0f9 993d 7866 94bd 471f c4bc
000002c0: e15f b53c aab7 73bd d268 86bb 5c08 81bd
000002d0: d562 60bd 97d1 cbbb fbeb 0f3d 0e34 703d
000002e0: 31d3 a1bd 192a 69bb 4f73 8cbd 4b4b 90bd
000002f0: 5507 69bc c25b b13d 1405 60bc 5c5a 943d
00000300: aaeb 7bbd d038 5cbd d1cb 29bc 2cba 16bd
00000310: 8e04 3a3d a945 adbc 1d34 6abd 95e7 a6bd
00000320: 7344 573c 43b4 8e3d c889 9e3c 529c b33d
00000330: 6ee4 02bd d472 6ebd ccd5 2d3c 4b4d 983c
00000340: c4b0 59bd 9c18 60bd 150c 23bd c355 0b3d
00000350: db42 5a3d 15b1 ad3d 901a 20bb b2ac 76bd
00000360: 4328 9d3c c011 9c3d 1f35 873d ac25 5cbc
00000370: a62d 3f3d a724 4dbd c54f 253d 1027 603a
00000380: 84d1 9fbd 9729 8ebc 73d1 0c3d 7431 af3b
00000390: e521 a9bc d83b 25bc e169 6bbd d8a2 983d
000003a0: 7b9a 0ebc c4b7 9cbd f015 9abd 75d9 6cbd
000003b0: bd4e 643d f8f5 93bd 6e35 c23c b1e7 e83c
000003c0: fd9a a9bd 198c 61bd 4ba7 49bd 963e 7e3d
000003d0: f921 6ebd 5c27 50bd b12d aebd 45dc b1bb
000003e0: 8f25 9a3b 2d02 643d 3144 a43d 7783 8b3c
000003f0: 198f adbd 385f 10bc 47af 853d c594 26bd

fc2.bias f4 [128]
-0.06289917 -0.010562279 0.06236533 0.07917554 -0.06874471 -0.003813758 -0.05130382 -0.08487747
0.0077424413 -0.0008941083 -0.06734326 -0.04450776 0.085174 0.06140495 -0.019898936 0.063847445
0.07140756 0.04673586 0.02913394 -0.0042288373 0.049434092 -0.05032481 -0.062969945 -0.07763103
-0.02055943 -0.0008154115 0.06055335 0.011454673 -0.06084504 -0.024405051 -0.08671926 -0.034291144
0.0043118643 -0.0406681 -0.011319352 0.015623463 -0.06332218 0.03169797 0.0049532675 -0.0042826673
-0.04163258 -0.067646496 0.020810144 -0.07541224 0.039471913 -0.026553802 -0.057519466 0.034091465
0.060176723 -0.07187843 0.0023099734 0.086581424 -0.02826669 -0.015889961 -0.022076745 0.04107714
0.058371443 0.002561058 0.04993589 0.06226661 -0.058162455 -0.0814584 -0.08434103 0.061773382
-0.009888933 -0.0065198927 -0.052566692 -0.02003845 -0.035532415 -0.031297967 -0.011340493 0.07868231
-0.05824255 -0.04548789 0.06805777 -0.065706365 0.039988607 -0.00019325326 -0.030074019 -0.049035113
0.014253953 0.05936349 0.024483096 0.07725626 0.08396775 -0.023737853 -0.020990448 -0.031740807
-0.073112994 -0.0055165784 -0.01231056 -0.017149668 0.044692166 0.055282805 0.03388732 -0.06419092
0.0008673095 0.0022343032 -0.05418533 0.06397485 -0.0359381 0.08766921 0.053413823 -0.04305192
0.044451512 0.07094413 0.03339819 -0.076960474 0.049174067 0.061221294 0.020779038 -0.070069425
-0.06307873 -0.0355801 -0.04768432 -0.08217067 0.070144676 -0.026770428 0.07817045 -0.03860019
0.06964251 0.0612429 -0.0036702878 0.06713315 0.0022122543 0.058286507 -0.07839546 0.057399146
00000000: 48d1 80bd 690d 2dbc ca72 7f3d c926 a23d
00000010: 07ca 8cbd 3ef0 79bb f423 52bd 3dd4 adbd
00000020: 4eb4 fd3b 9862 6aba 43eb 89bd c54d 36bd
00000030: b56f ae3d c283 7b3d 1803 a3bc 73c2 823d
00000040: 203e 923d 1a6e 3f3d 4daa ee3c 0f92 8abb
00000050: 677b 4a3d 6321 4ebd 63f6 80bd 04fd 9ebd
00000060: 406c a8bc 57c1 55ba ca06 783d 61ac 3b3c
00000070: a638 79bd 1aed c7bc de99 b1bd df74 0cbd
00000080: 8a4a 8d3b 9893 26bd ce74 39bc 8ef9 7f3c
00000090: 0faf 81bd bbd5 013d 054f a23b 9e55 8cbb
000000a0: ed86 2abd 3f8a 8abd 097a aa3c bc71 9abd
000000b0: 4dad 213d 5c87 d9bc 8899 6bbd 7ea3 0b3d
000000c0: de7b 763d 0035 93bd ec62 173b 9a51 b13d
000000d0: 8c8f e7bc aa2b 82bc 4ada b4bc 8140 283d
000000e0: e516 6f3d 6cd7 273b 9389 4c3d 460b 7f3d
000000f0: c13b 6ebd a9d3 a6bd fdba acbd 1606 7d3d
00000100: 3105 22bc d3a4 d5bb 2c50 57bd ad27 a4bc
00000110: 708a 11bd 4c32 00bd 7acd 39bc 3124 a13d
00000120: bd8f 6ebd 8251 3abd df61 8b3d 0f91 86bd
00000130: 18cb 233d 07a4 4ab9 ca5d f6bc 0bd9 48bd
00000140: 6989 693c 2227 733d c690 c83c 8838 9e3d
00000150: 49f7 ab3d e375 c2bc 29f4 abbc a602 02bd
00000160: 44bc 95bd 6ac4 b4bb 3bb2 49bc 767d 8cbc
00000170: 220f 373d 3970 623d 6ecd 0a3d 8776 83bd
00000180: 285c 633a 636d 123b 70f1 5dbd 3f05 833d
00000190: d433 13bd ea8b b33d 74c8 5a3d 3657 30bd
000001a0: ca12 363d 284b 913d 8acc 083d 749d 9dbd
000001b0: bf6a 493d 2ec3 7a3d cd38 aa3c 8f80 8fbd
000001c0: 6c2f 81bd 70bc 11bd a250 43bd 1949 a8bd
000001d0: 03a8 8f3d a84d dbbc d417 a03d 3c1b 1ebd
000001e0: bba0 8e3d d6d9 7a3d 3689 70bb 1b7d 893d
000001f0: 78fb 103b d5bd 6e3d cd8d a0bd 5e1b 6b3d

fc3.weight f4 [4, 128]
0.041430295 -0.021757487 -0.033311762 -0.0053246324 0.04804009 0.026297314 0.08611651 0.053791564
0.08218483 -0.07328063 0.078291155 -0.05278611 -0.02700121 0.016306264 -0.015799625 -0.06793558
0.06423413 -0.0013665484 0.032759678 0.08313552 -0.03167748 -0.08757682 -0.066864185 0.016016623
-0.007079851 0.04171081 0.068098 -0.0069498853 0.081041165 0.06807565 -0.041003007 -0.0061985394
-0.010009353 -0.05068467 0.053536385 -0.04859143 -0.05732948 -0.036942065 -0.038018674 0.061521553
-0.04910962 0.014262521 0.046054132 0.037671104 0.045623116 0.08399979 0.010054336 0.01275266
-0.06184975 0.05935753 -0.077881366 0.011149293 -0.043178953 -0.056742746 -0.04975484 0.034006532
-0.029016593 0.041955937 -0.03084832 -0.07604927 -0.06623312 -0.05259761 -0.034393214 0.08144126
-0.050731983 -0.004844954 -0.034324296 0.06550296 -0.017766766 -0.025529534 -0.048186492 -0.020690188
0.020385088 -0.07225916 0.035187446 -0.07785976 -0.06228114 0.072918534 -0.049746644 0.013840817
-0.05606549 0.020446556 -0.0857395 -0.08738311 -0.013726357 0.076467246 0.06747364 0.03354199
-0.02006732 0.067247145 0.057113413 0.06093966 0.0017180649 0.014470951 0.033403408 0.03037558
-0.030010315 -0.036612745 -0.039924905 -0.08052931 0.004953407 0.047646325 -0.07488847 -0.022032598
0.051013246 0.024661353 0.055185203 -0.08311764 -0.012578408 -0.08564637 0.036894754 0.083064
0.04837127 0.014751838 0.08055539 -0.059376903 0.07506356 0.027936816 -0.034161877 0.01593299
0.029844541 0.042654797 -0.04722872 0.038924664 0.07312864 0.08148745 0.07121906 -0.015436081
0.04840591 0.033248063 0.023940694 -0.07067442 -0.030991372 -0.08446545 0.05706051 -0.0695151
0.05039596 0.050441783 -0.05979376 -0.040040392 0.024080206 -0.015076497 0.04177861 -0.016101744
-0.015885118 0.073183775 0.08198142 0.024763798 -0.057304893 0.042363856 -0.06872683 0.025212696
-0.006127713 -0.04508891 0.030207943 0.01774553 -0.026131354 0.06309325 0.05089627 0.004155868
-0.077085644 -0.006181496 -0.08089588 -0.026767448 0.026740998 -0.06187173 0.021800328 0.0086987
-0.027673999 0.05918207 0.054057553 0.043350317 -0.045940135 -0.08325548 0.054499745 0.029114008
0.04356601 -0.057759006 0.037536994 0.03733545 0.08430601 -0.023915736 -0.02474182 -0.07638082
0.081105985 0.004385392 -0.027551437 0.0350064 0.022696074 0.058527905 -0.06966262 -0.046288453
0.07507026 0.03999941 -0.029346097 -0.07598296 0.00645321 0.0023025228 0.049443774 0.015221783
-0.042409305 -0.048095964 0.019431412 -0.0044420636 -0.06627559 0.022277908 -0.0010407948 -0.03780186
0.060124196 -0.039649982 0.071774125 0.034316473 -0.013059716 -0.011450669 -0.064435296 0.029521557
0.00997061 -0.07175699 -0.05431497 0.05418794 0.057852507 0.013854136 -0.03781676 -0.051205095
0.018752849 -0.05516434 0.038931742 0.0077177146 -0.013866895 0.03198109 -0.043958284 -0.000418122
-0.023449516 -0.07937298 -0.028194048 0.055502225 0.07669449 -0.00511881 -0.034515407 -0.046583496
0.03257714 0.034651008 -0.00019442178 -0.055142734 -0.06911426 0.0505975 0.0431946 0.061398245
-0.06828948 0.08681239 -0.047973774 0.008531993 0.019652883 -0.015617316 0.055163596 0.08430303
00000000: d0b2 293d c23c b2bc ea71 08bd 417a aebb
00000010: afc5 443d 776d d73c da5d b03d 8b54 5c3d
00000020: 8550 a83d 2814 96bd 1d57 a03d 4036 58bd
00000030: a431 ddbc b794 853c 376e 81bc cf21 8bbd
00000040: 2f8d 833d c11d b3ba 032f 063d f542 aa3d
00000050: 3fc0 01bd 7a5b b3bd 17f0 88bd 4b35 833c
00000060: 18fe e7bb f4d8 2a3d f776 8b3d ddbb e3bb
00000070: e9f8 a53d 3f6b 8b3d c5f2 27bd 1e1d cbbb
00000080: 45fe 23bc bb9a 4fbd f848 5b3d cf07 47bd
00000090: 51d2 6abd 9050 17bd 78b9 1bbd 06fe 7b3d
000000a0: 2b27 49bd 59ad 693c 42a3 3c3d 044d 1a3d
000000b0: 4edf 3a3d 1508 ac3d f1ba 243c 88f0 503c
000000c0: 2a56 7dbd e220 733d 4480 9fbd 86ab 363c
000000d0: 6adc 30bd 156b 68bd bbcb 4bbd 6f4a 0b3d
000000e0: 35b4 edbc fdd9 2b3d 9eb5 fcbc b8bf 9bbd
000000f0: 3ba5 87bd 9770 57bd e6df 0cbd adca a63d
00000100: 57cc 4fbd 6bc2 9ebb a297 0cbd 6a26 863d
00000110: 9c8b 91bc 5023 d1bc 335f 45bd 787e a9bc
00000120: a1fe a63c 9cfc 93bd b620 103d f074 9fbd
00000130: 821a 7fbd 5056 953d 23c3 4bbd 98c4 623c
00000140: eda4 65bd 897f a73c 3198 afbd eaf5 b2bd
00000150: 84e4 60bc dc9a 9c3d 9f2f 8a3d 5363 093d
00000160: 3864 a4bc dfb8 893d c1ef 693d dd9b 793d
00000170: b130 e13a 9117 6d3c 03d2 083d 35d6 f83c
00000180: 31d8 f5bc 3ff7 15bd 4c88 23bd 8dec a4bd
00000190: 3150 a23b cb28 433d 205f 99bd b57d b4bc
000001a0: 44f3 503d 9b06 ca3c e109 623d 9539 aabd
000001b0: ab15 4ebc 5d67 afbd f41e 173d 751d aa3d
000001c0: f420 463d b1b1 713c 39fa a43d 3235 73bd
000001d0: ecba 993d c0db e43c 53ed 0bbd e785 823c
000001e0: 8a7c f43c ccb6 2e3d e772 41bd 786f 1f3d
000001f0: 78c4 953d e4e2 a63d 4cdb 913d 9ee7 7cbc
00000200: 4745 463d 1f2f 083d 461f c43c c0bd 90bd
00000210: 9ee1 fdbc 39fc acbd 48b8 693d ef5d 8ebd
00000220: ff6b 4e3d 0b9c 4e3d 4dea 74bd 6501 24bd
00000230: da43 c53c 6903 77bc 0c20 2b3d cee7 83bc
00000240: 8221 82bc 60e1 953d e0e5 a73d 73dd ca3c
00000250: 89b8 6abd b985 2d3d a7c0 8cbd db8a ce3c
00000260: fbca c8bb 26af 38bd a676 f73c 135f 913c
00000270: 6c11 d6bc 0937 813d 9b78 503d f32d 883b
00000280: 14df 9dbd 268e cabb bdac a5bd 6847 dbbc
00000290: f00f db3c 366d 7dbd 9a96 b23c fe84 0e3c
000002a0: 95b4 e2bc e668 723d 746b 5d3d 1a90 313d
000002b0: b92b 3cbd d981 aabd 203b 5f3d 8080 ee3c
000002c0: 4672 323d b594 6cbd 64c0 193d 0fed 183d
000002d0: a1a8 ac3d efea c3bc 5baf cabc 8c6d 9cbd
000002e0: e51a a63d 56b3 8f3b 8db3 e1bc df62 0f3d
000002f0: 1eed b93c f5ba 6f3d 47ab 8ebd f698 3dbd
00000300: 70be 993d 6cd6 233d 3a67 f0bc f49c 9bbd
00000310: 7375 d33b ece5 163b 8e85 4a3d c964 793c
00000320: 61b5 2dbd 4600 45bd a02e 9f3c bb8e 91bb
00000330: 7fbb 87bd 2980 b63c 476b 88ba 20d6 1abd
00000340: ca44 763d 0568 22bd 50fe 923d 6e8f 0c3d
00000350: 6bf8 55bc 969b 3bbc a7f6 83bd 31d7 f13c
00000360: c55b 233c 54f5 92bd 6079 5ebd 2cf4 5d3d
00000370: c0f6 6c3d 75fc 623c bfe5 1abd 6fbc 51bd
00000380: 939f 993c 01f4 61bd e476 1f3d e2e4 fc3b
00000390: f931 63bc 9afe 023d 9a0d 34bd 6337 dbb9
000003a0: 3319 c0bc 4d8e a2bd 34f7 e6bc 4d56 633d
000003b0: 0012 9d3d b1bb a7bb 0760 0dbd 56ce 3ebd
000003c0: 9b6f 053d 37ee 0d3d b3dd 4bb9 59dd 61bd
000003d0: c78b 8dbd 533f 4f3d d2ec 303d ba7c 7b3d
000003e0: 5bdb 8bbd b2ca b13d 2680 44bd c6c9 0b3c
000003f0: 15ff a03c c5df 7fbc 39f3 613d 11a7 ac3d

fc3.bias f4 [4]
-0.06818889 0.06989806 -0.08080945 0.01106119
00000000: 9ea6 8bbd b726 8f3d 6d7f a5bd fe39 353c
